gumbel-sinkhorn/trained_model.pkl (torch_old, 7713 bytes, 4 tensors)

linear1.weight f4 [32, 1]
0	0xc0270dbe	-2.6102138
1	0x4026b05d	2.6045144
2	0x40191df5	2.3924534
3	0xc005d12c	-2.0908918
4	0x401b8f50	2.430622
5	0x40227d35	2.538892
6	0xbf51344e	-0.81720436
7	0x4029a43e	2.6506495
8	0x40243ca2	2.5662007
9	0x403a5d4b	2.9119442
10	0x3eb188e0	0.3467474
11	0xbe85b29c	-0.2611283
12	0x3ee5a20c	0.44850194
13	0x40341db0	2.814312
14	0xbe156038	-0.14587486
15	0xc0569e51	-3.3534129
16	0xc01fbfef	-2.4960897
17	0x3dacd100	0.08438301
18	0x403c1659	2.938864
19	0x3f104e0e	0.563691
20	0x3f1aedee	0.605193
21	0xbf70d9c6	-0.94082296
22	0xbe270c38	-0.16313255
23	0x40179b3e	2.3688502
24	0xc01b1765	-2.423303
25	0x403e3f51	2.9726145
26	0x40251db6	2.5799384
27	0x401b8308	2.4298725
28	0xc02160c5	-2.5215313
29	0x403a01ea	2.9063668
30	0x3ee0b89c	0.43890846
31	0x3f09ced6	0.5383123

linear1.bias f4 [32]
0	0x40dfe5ca	6.9968004
1	0xbc9865a8	-0.018603161
2	0x3bc4ff2c	0.006011864
3	0x4002cee1	2.043877
4	0x3c455dde	0.012046305
5	0x3c40840e	0.011750234
6	0xbecf97d4	-0.40545523
7	0xbc38787e	-0.011259196
8	0x3d6ee781	0.058326248
9	0x3e086914	0.13321334
10	0xbfaedd51	-1.366129
11	0xbe1e8f40	-0.15484333
12	0xbf62fb1c	-0.8866441
13	0xbc89dff5	-0.016830424
14	0xbecae140	-0.39624977
15	0x4053178c	3.2983122
16	0x401c526a	2.4425302
17	0xbf705a82	-0.93888104
18	0xbcb07e98	-0.02154474
19	0xbf175fe4	-0.5913069
20	0xbf37ed78	-0.71846724
21	0xbee02018	-0.43774486
22	0xbf5956db	-0.84898156
23	0xbbe56888	-0.0070009865
24	0x4073149d	3.7981331
25	0xbcdadf73	-0.026717877
26	0xbc328200	-0.010895252
27	0xbb937a00	-0.0045006275
28	0x4085e4b1	4.1841664
29	0xbcaf3a40	-0.02139008
30	0xbf19f458	-0.60138464
31	0xbf5364fc	-0.82575965

linear2.weight f4 [50, 32]
0	0xc05e1985	-3.4703076
1	0x40151fd4	2.3300676
2	0x40357507	2.8352678
3	0xc04246e8	-3.0355778
4	0x40757900	3.8355103
5	0x4083a8ea	4.1143694
6	0x3d82ceb2	0.0638708
7	0x40091bac	2.142314
8	0x400fc525	2.2464077
9	0x4043c03a	3.0586076
10	0x3f07f67c	0.5311048
11	0xbe261fb4	-0.16223031
12	0x3d01c8d8	0.03168568
13	0x4003af62	2.0575795
14	0xbdc96894	-0.098344
15	0xc00668fb	-2.1001575
16	0xc0b7e39f	-5.746536
17	0x3ce83fc0	0.02835071
18	0x3ffb94b3	1.9654754
19	0xbded1f5c	-0.11578247
20	0x38b1d800	8.480251e-05
21	0xbe0bdff4	-0.1365965
22	0x3ef0e640	0.47050667
23	0x405e8da6	3.4773955
24	0xc08775b1	-4.2331166
25	0x3ff3f952	1.9060462
26	0x40147bce	2.3200564
27	0x403e5cba	2.9744096
28	0xc03667d5	-2.8500874
29	0x3fe4f5b6	1.7887485
30	0x3ca9f570	0.020746917
31	0x3e1b63b9	0.1517476
32	0xc02f3d06	-2.7380996
33	0x4001c85c	2.027854
34	0x40266094	2.5996447
35	0xc0324982	-2.7857366
36	0x404ae2c7	3.1700914
37	0x405ad4d6	3.4192405
38	0xbddacfa6	-0.10684137
39	0x4000826b	2.00796
40	0x3ff2da35	1.8972842
41	0x401c066a	2.4378915
42	0x3f2bae1e	0.67062557
43	0xbda0038f	-0.07813179
44	0x3ddb548e	0.10709487
45	0x3ff97a5f	1.949047
46	0x3dab37f6	0.08360283
47	0xbff477ab	-1.909902
48	0xc098a3c1	-4.7699895
49	0x3d4fa508	0.050694495
50	0x3fcb0fe7	1.5864228
51	0xbdbb96b7	-0.09159606
52	0xbdf7d3f9	-0.121009775
53	0xbdc37f84	-0.09545806
54	0x3f1086cd	0.5645569
55	0x40461649	3.0951102
56	0xc068d74a	-3.6381402
57	0x3fef0714	1.8674035
58	0x3ff6985c	1.9265246
59	0x4030e34c	2.763873
60	0xc01855fc	-2.380248
61	0x3ff04818	1.8772001
62	0x3bcb0800	0.006196022
63	0xbd521dd4	-0.051297978
64	0xc005f7e6	-2.0932555
65	0x3ff8c549	1.9435207
66	0x4015b173	2.3389556
67	0xc0297bdd	-2.648185
68	0x4036941b	2.8527896
69	0x40411cb1	3.0173762
70	0x3e1c2509	0.15248503
71	0x3fec0b5e	1.8440969
72	0x40063322	2.096871
73	0x401a5f62	2.4120717
74	0x3efbf164	0.49207604
75	0xbca48b18	-0.020085856
76	0xbe005212	-0.12531307
77	0x3fd9e327	1.7022446
78	0x3df420ee	0.11920343
79	0xbfe9b9bc	-1.8259807
80	0xc080c733	-4.0243163
81	0x3d5c6d78	0.053815335
82	0x3fdb0909	1.7112132
83	0xbdc2e8c5	-0.095170535
84	0x3d173be4	0.03692235
85	0xbda1d431	-0.079018004
86	0x3f049604	0.51791406
87	0x403a49d4	2.910756
88	0xc0438284	-3.054841
89	0x3fc7cfa6	1.5610244
90	0x3fe3b598	1.7789793
91	0x4026da6c	2.6070814
92	0xc012e8a7	-2.29545
93	0x3fc7d65c	1.5612292
94	0x3e2391f7	0.1597365
95	0x3d1648a0	0.036690354
96	0xbfe23762	-1.7673151
97	0x3fda42c5	1.7051626
98	0x3ffd7df1	1.9804059
99	0xc016ccfb	-2.356261
100	0x4024a6ca	2.57268
101	0x402710fb	2.6104114
102	0x3e332277	0.17493616
103	0x3fcdf5ed	1.6090676
104	0x3feaf8a7	1.8357133
105	0x4013a72a	2.307078
106	0x3f002199	0.50051266
107	0xbe0c79da	-0.13718358
108	0xbdc1069c	-0.09425089
109	0x3fc40272	1.5313246
110	0xbd8239e3	-0.06358697
111	0xbfce54ce	-1.611963
112	0xc0563d2e	-3.347484
113	0x3e091895	0.13388284
114	0x3fc84579	1.5646201
115	0x3dc5e4ae	0.09662758
116	0x3dea136a	0.11429484
117	0x3da784ee	0.08179651
118	0x3f450ddf	0.7697429
119	0x4021f941	2.5308383
120	0xc024de71	-2.5760767
121	0x3fc061a9	1.5029804
122	0x3fd0f4d6	1.6324718
123	0x401936dd	2.3939736
124	0xbfef79b1	-1.8709012
125	0x3fc88044	1.5664144
126	0x3dfdf7da	0.124007896
127	0xbd4292a8	-0.047503144
128	0xbfd723f8	-1.6807852
129	0x3fe0ee80	1.7572784
130	0x3fdeb730	1.7399654
131	0xbff2698f	-1.8938464
132	0x400e9153	2.22762
133	0x4007e2e1	2.1232226
134	0xbe2245ce	-0.15846941
135	0x3fc7526d	1.5572029
136	0x3fe87f74	1.8163896
137	0x3fef525f	1.8697013
138	0x3f2160cf	0.63038343
139	0xbe14530e	-0.14484808
140	0xbd3778e0	-0.04479301
141	0x3fc7701e	1.558109
142	0xbdce5543	-0.10074856
143	0xbfd4d4d0	-1.6627445
144	0xc041e267	-3.0294435
145	0x3d38a28c	0.04507689
146	0x3fa6c3d7	1.3028516
147	0xbd0b0bd4	-0.033946827
148	0x3d62c0f0	0.05535978
149	0x3da6e162	0.08148457
150	0x3f35b090	0.7097254
151	0x4014a4d5	2.3225605
152	0xc004e7b5	-2.0766423
153	0x3fb31edc	1.3993793
154	0x3fb28fc4	1.3950124
155	0x400a4f4f	2.1610906
156	0xbfe96d1c	-1.8236423
157	0x3fb5851c	1.4181247
158	0x3d80804c	0.06274471
159	0xbd34d6c4	-0.04415013
160	0xbfb52638	-1.4152288
161	0x3fde6c7f	1.737686
162	0x3fd1939a	1.637317
163	0xbfebe0a2	-1.8427927
164	0x3fe73865	1.8064085
165	0x3ffc74fc	1.9723201
166	0x3d5c0230	0.053713024
167	0x3fd0d9b0	1.6316433
168	0x3fc18c65	1.512097
169	0x3ff3c174	1.9043412
170	0x3edb0691	0.42778447
171	0x3e0abe8d	0.13549252
172	0xbdb53785	-0.0884848
173	0x3facce74	1.3500504
174	0xbcc6e8f0	-0.024280995
175	0xbfabd262	-1.3423579
176	0xc020d76f	-2.513149
177	0x3d46354c	0.04839067
178	0x3f9fc97b	1.2483362
179	0x3dbb5676	0.091473505
180	0xbd157ed0	-0.03649789
181	0x3e039db1	0.12853123
182	0x3f1bb723	0.6082632
183	0x3fe2d6a0	1.7721748
184	0xbfe1d7b3	-1.7643951
185	0x3fc91fe5	1.5712858
186	0x3fc7aa45	1.5598837
187	0x3ff114d9	1.8834487
188	0xbfd00f4d	-1.625467
189	0x3fa84012	1.3144553
190	0x3d48d5b0	0.049031913
191	0x3bf96e60	0.0076120347
192	0xbfa6951d	-1.3014256
193	0x3faf70c9	1.3706294
194	0x3fc02f83	1.50145
195	0xbfd3dedf	-1.655239
196	0x3fda2d54	1.7045083
197	0x3fe0afb5	1.7553622
198	0x3dfc28be	0.123124585
199	0x3fcfb731	1.622778
200	0x3fbe76a5	1.4879957
201	0x3fb72a93	1.4309868
202	0x3f11d3d0	0.56963825
203	0xbda65992	-0.08122553
204	0xbe334910	-0.1750834
205	0x3fc8a760	1.5676079
206	0xbd33f7e4	-0.04393758
207	0xbf9e24bc	-1.235496
208	0xc0212e6d	-2.5184586
209	0xbe2e2297	-0.17005382
210	0x3fb9ff20	1.4530983
211	0x3e1f61cb	0.15564649
212	0x3e2dee87	0.16985522
213	0xbd620b1e	-0.055186383
214	0x3f245ccd	0.642041
215	0x3ffc09b1	1.9690458
216	0xbfe848b7	-1.8147191
217	0x3fb88bd3	1.4417671
218	0x3f9f775b	1.2458299
219	0x3fdb00fb	1.7109674
220	0xbfce44cb	-1.6114744
221	0x3fb3412e	1.4004266
222	0x3d2375b0	0.039907157
223	0x3e01647b	0.12635987
224	0xbf975904	-1.182404
225	0x3faab2c9	1.3335811
226	0x3fa8e273	1.3194107
227	0xbfae3425	-1.3609663
228	0x3fa857f8	1.3151846
229	0x3f9e747e	1.23793
230	0x3dd9f3ce	0.10642205
231	0x3fad9c4a	1.3563321
232	0x3fb63b41	1.4236833
233	0x3f94a493	1.1612724
234	0x3f310dd8	0.6916175
235	0xbc727a50	-0.014799669
236	0xbe17798c	-0.1479246
237	0x3f90ca22	1.1311686
238	0x3d0bab18	0.034098715
239	0xbf9e24f2	-1.2355025
240	0xbfd39fa8	-1.6533098
241	0xbdcd6d6b	-0.100306354
242	0x3f93585d	1.1511341
243	0x3d719880	0.058983326
244	0x3cbd7fc8	0.02313222
245	0xbc509130	-0.012729928
246	0x3f2b7355	0.6697286
247	0x3fc5cf11	1.5453817
248	0xbfb172ea	-1.3863194
249	0x3fb2331e	1.392185
250	0x3fb07e0e	1.3788469
251	0x3fa0a11e	1.2549169
252	0xbfabd3a3	-1.3423961
253	0x3f876339	1.0577155
254	0xbd457de0	-0.048215747
255	0xbe27c05e	-0.16381976

linear2.bias f4 [50]
0	0xc1038f01	-8.222413
1	0xc0b3a6a5	-5.6140924
2	0xc0974e87	-4.728336
3	0xc08a5077	-4.3223224
4	0xc04d5e21	-3.2088702
5	0xc02f1dfb	-2.7362049
6	0xc0310dbd	-2.7664635
7	0xc0040b18	-2.063177
8	0xbfda85e8	-1.7072115
9	0xbfeffc0c	-1.8748794
10	0x3fb00f11	1.3754598
11	0xbda70d99	-0.081568904
12	0x3ee32dcc	0.44370878
13	0x3f8c7c91	1.0975515
14	0x407ca00a	3.947268
15	0x404e2340	3.2209015
16	0x401f4e32	2.4891477
17	0x4055611c	3.334052
18	0x407a9801	3.9155276
19	0x4086b383	4.209413
20	0x3fcc7b60	1.5975151
21	0x4020b6bd	2.5111535
22	0x414c93d3	12.78609
23	0x4093aa2b	4.6145225
24	0x408cc045	4.3984704
25	0x40839d87	4.1129794
26	0x3fae8942	1.3635638
27	0x3f94004e	1.1562593
28	0x3fb8aedb	1.4428362
29	0x40089c1f	2.1345289
30	0x3fb88fbf	1.4418868
31	0x3ff7e04b	1.9365324
32	0x4014fc4c	2.327899
33	0x3fca769a	1.5817444
34	0x403ab176	2.9170814
35	0x403030f7	2.7529886
36	0x403c1b63	2.9391716
37	0x4097a865	4.739306
38	0x402791fa	2.6182847
39	0x403427e7	2.8149354
40	0x407bf949	3.9370902
41	0x40372108	2.861391
42	0x4060572c	3.5053205
43	0x40280f94	2.6259508
44	0x405987b3	3.3989074
45	0x406174d5	3.5227559
46	0x405a6124	3.412179
47	0x4034e3a6	2.8263946
48	0x407b935d	3.9308693
49	0x40741283	3.8136299
